…
2024-08-23 15:39:08,672 [INFO] Batch size: 14
2024-08-23 15:39:08,672 [INFO] Batches in train: 3565.714285714286
2024-08-23 15:39:08,672 [INFO] Batches in test: 891.4285714285714
2024-08-23 15:39:15,017 [INFO] Before compilation and loading of slstm.
2024-08-23 15:39:15,202 [INFO] After compilation and loading of slstm.
2024-08-23 15:39:17,279 [INFO] Before compilation and loading of slstm.
2024-08-23 15:39:17,297 [INFO] After compilation and loading of slstm.
2024-08-23 15:39:17,574 [INFO] Model loaded
2024-08-23 15:39:17,576 [INFO] --------------------------------------------------
Model(
  (encoder): XL_encoder(
    (conv1): Conv1d(3, 128, kernel_size=(1,), stride=(1,))
    (conv2): Conv1d(128, 256, kernel_size=(1,), stride=(1,))
    (conv3): Conv1d(512, 512, kernel_size=(1,), stride=(1,))
    (conv4): Conv1d(512, 1024, kernel_size=(1,), stride=(1,))
    (xlstm_point_stack): xLSTMBlockStack(
      (blocks): ModuleList(
        (0): mLSTMBlock(
          (xlstm_norm): LayerNorm()
          (xlstm): mLSTMLayer(
            (proj_up): Linear(in_features=128, out_features=512, bias=False)
            (q_proj): LinearHeadwiseExpand(in_features=256, num_heads=64, expand_factor_up=1, bias=False, trainable_weight=True, trainable_bias=True, )
            (k_proj): LinearHeadwiseExpand(in_features=256, num_heads=64, expand_factor_up=1, bias=False, trainable_weight=True, trainable_bias=True, )
            (v_proj): LinearHeadwiseExpand(in_features=256, num_heads=64, expand_factor_up=1, bias=False, trainable_weight=True, trainable_bias=True, )
            (conv1d): CausalConv1d(
              (conv): Conv1d(256, 256, kernel_size=(4,), stride=(1,), padding=(3,), groups=256)
            )
            (conv_act_fn): SiLU()
            (mlstm_cell): mLSTMCell(
              (igate): Linear(in_features=768, out_features=4, bias=True)
              (fgate): Linear(in_features=768, out_features=4, bias=True)
              (outnorm): MultiHeadLayerNorm()
            )
            (ogate_act_fn): SiLU()
            (proj_down): Linear(in_features=256, out_features=128, bias=False)
            (dropout): Dropout(p=0.0, inplace=False)
          )
        )
        (1): sLSTMBlock(
          (xlstm_norm): LayerNorm()
          (xlstm): sLSTMLayer(
            (conv1d): CausalConv1d(
              (conv): Conv1d(128, 128, kernel_size=(4,), stride=(1,), padding=(3,), groups=128)
            )
            (conv_act_fn): SiLU()
            (fgate): LinearHeadwiseExpand(in_features=128, num_heads=4, expand_factor_up=1, bias=False, trainable_weight=True, trainable_bias=True, )
            (igate): LinearHeadwiseExpand(in_features=128, num_heads=4, expand_factor_up=1, bias=False, trainable_weight=True, trainable_bias=True, )
            (zgate): LinearHeadwiseExpand(in_features=128, num_heads=4, expand_factor_up=1, bias=False, trainable_weight=True, trainable_bias=True, )
            (ogate): LinearHeadwiseExpand(in_features=128, num_heads=4, expand_factor_up=1, bias=False, trainable_weight=True, trainable_bias=True, )
            (slstm_cell): sLSTMCell_cuda(function=slstm, hidden_size=128, num_heads=4)
            (group_norm): MultiHeadLayerNorm()
            (dropout): Dropout(p=0.0, inplace=False)
          )
          (ffn_norm): LayerNorm()
          (ffn): GatedFeedForward(
            (proj_up): Linear(in_features=128, out_features=384, bias=False)
            (proj_down): Linear(in_features=192, out_features=128, bias=False)
            (dropout): Dropout(p=0.0, inplace=False)
          )
        )
        (2): mLSTMBlock(
          (xlstm_norm): LayerNorm()
          (xlstm): mLSTMLayer(
            (proj_up): Linear(in_features=128, out_features=512, bias=False)
            (q_proj): LinearHeadwiseExpand(in_features=256, num_heads=64, expand_factor_up=1, bias=False, trainable_weight=True, trainable_bias=True, )
            (k_proj): LinearHeadwiseExpand(in_features=256, num_heads=64, expand_factor_up=1, bias=False, trainable_weight=True, trainable_bias=True, )
            (v_proj): LinearHeadwiseExpand(in_features=256, num_heads=64, expand_factor_up=1, bias=False, trainable_weight=True, trainable_bias=True, )
            (conv1d): CausalConv1d(
              (conv): Conv1d(256, 256, kernel_size=(4,), stride=(1,), padding=(3,), groups=256)
            )
            (conv_act_fn): SiLU()
            (mlstm_cell): mLSTMCell(
              (igate): Linear(in_features=768, out_features=4, bias=True)
              (fgate): Linear(in_features=768, out_features=4, bias=True)
              (outnorm): MultiHeadLayerNorm()
            )
            (ogate_act_fn): SiLU()
            (proj_down): Linear(in_features=256, out_features=128, bias=False)
            (dropout): Dropout(p=0.0, inplace=False)
          )
        )
        (3): mLSTMBlock(
          (xlstm_norm): LayerNorm()
          (xlstm): mLSTMLayer(
            (proj_up): Linear(in_features=128, out_features=512, bias=False)
            (q_proj): LinearHeadwiseExpand(in_features=256, num_heads=64, expand_factor_up=1, bias=False, trainable_weight=True, trainable_bias=True, )
            (k_proj): LinearHeadwiseExpand(in_features=256, num_heads=64, expand_factor_up=1, bias=False, trainable_weight=True, trainable_bias=True, )
            (v_proj): LinearHeadwiseExpand(in_features=256, num_heads=64, expand_factor_up=1, bias=False, trainable_weight=True, trainable_bias=True, )
            (conv1d): CausalConv1d(
              (conv): Conv1d(256, 256, kernel_size=(4,), stride=(1,), padding=(3,), groups=256)
            )
            (conv_act_fn): SiLU()
            (mlstm_cell): mLSTMCell(
              (igate): Linear(in_features=768, out_features=4, bias=True)
              (fgate): Linear(in_features=768, out_features=4, bias=True)
              (outnorm): MultiHeadLayerNorm()
            )
            (ogate_act_fn): SiLU()
            (proj_down): Linear(in_features=256, out_features=128, bias=False)
            (dropout): Dropout(p=0.0, inplace=False)
          )
        )
      )
      (post_blocks_norm): LayerNorm()
    )
    (xlstm_point_stack2): xLSTMBlockStack(
      (blocks): ModuleList(
        (0): mLSTMBlock(
          (xlstm_norm): LayerNorm()
          (xlstm): mLSTMLayer(
            (proj_up): Linear(in_features=512, out_features=2048, bias=False)
            (q_proj): LinearHeadwiseExpand(in_features=1024, num_heads=256, expand_factor_up=1, bias=False, trainable_weight=True, trainable_bias=True, )
            (k_proj): LinearHeadwiseExpand(in_features=1024, num_heads=256, expand_factor_up=1, bias=False, trainable_weight=True, trainable_bias=True, )
            (v_proj): LinearHeadwiseExpand(in_features=1024, num_heads=256, expand_factor_up=1, bias=False, trainable_weight=True, trainable_bias=True, )
            (conv1d): CausalConv1d(
              (conv): Conv1d(1024, 1024, kernel_size=(4,), stride=(1,), padding=(3,), groups=1024)
            )
            (conv_act_fn): SiLU()
            (mlstm_cell): mLSTMCell(
              (igate): Linear(in_features=3072, out_features=4, bias=True)
              (fgate): Linear(in_features=3072, out_features=4, bias=True)
              (outnorm): MultiHeadLayerNorm()
            )
            (ogate_act_fn): SiLU()
            (proj_down): Linear(in_features=1024, out_features=512, bias=False)
            (dropout): Dropout(p=0.0, inplace=False)
          )
        )
        (1): sLSTMBlock(
          (xlstm_norm): LayerNorm()
          (xlstm): sLSTMLayer(
            (conv1d): CausalConv1d(
              (conv): Conv1d(512, 512, kernel_size=(4,), stride=(1,), padding=(3,), groups=512)
            )
            (conv_act_fn): SiLU()
            (fgate): LinearHeadwiseExpand(in_features=512, num_heads=4, expand_factor_up=1, bias=False, trainable_weight=True, trainable_bias=True, )
            (igate): LinearHeadwiseExpand(in_features=512, num_heads=4, expand_factor_up=1, bias=False, trainable_weight=True, trainable_bias=True, )
            (zgate): LinearHeadwiseExpand(in_features=512, num_heads=4, expand_factor_up=1, bias=False, trainable_weight=True, trainable_bias=True, )
            (ogate): LinearHeadwiseExpand(in_features=512, num_heads=4, expand_factor_up=1, bias=False, trainable_weight=True, trainable_bias=True, )
            (slstm_cell): sLSTMCell_cuda(function=slstm, hidden_size=512, num_heads=4)
            (group_norm): MultiHeadLayerNorm()
            (dropout): Dropout(p=0.0, inplace=False)
          )
          (ffn_norm): LayerNorm()
          (ffn): GatedFeedForward(
            (proj_up): Linear(in_features=512, out_features=1408, bias=False)
            (proj_down): Linear(in_features=704, out_features=512, bias=False)
            (dropout): Dropout(p=0.0, inplace=False)
          )
        )
        (2): mLSTMBlock(
          (xlstm_norm): LayerNorm()
          (xlstm): mLSTMLayer(
            (proj_up): Linear(in_features=512, out_features=2048, bias=False)
            (q_proj): LinearHeadwiseExpand(in_features=1024, num_heads=256, expand_factor_up=1, bias=False, trainable_weight=True, trainable_bias=True, )
            (k_proj): LinearHeadwiseExpand(in_features=1024, num_heads=256, expand_factor_up=1, bias=False, trainable_weight=True, trainable_bias=True, )
            (v_proj): LinearHeadwiseExpand(in_features=1024, num_heads=256, expand_factor_up=1, bias=False, trainable_weight=True, trainable_bias=True, )
            (conv1d): CausalConv1d(
              (conv): Conv1d(1024, 1024, kernel_size=(4,), stride=(1,), padding=(3,), groups=1024)
            )
            (conv_act_fn): SiLU()
            (mlstm_cell): mLSTMCell(
              (igate): Linear(in_features=3072, out_features=4, bias=True)
              (fgate): Linear(in_features=3072, out_features=4, bias=True)
              (outnorm): MultiHeadLayerNorm()
            )
            (ogate_act_fn): SiLU()
            (proj_down): Linear(in_features=1024, out_features=512, bias=False)
            (dropout): Dropout(p=0.0, inplace=False)
          )
        )
        (3): mLSTMBlock(
          (xlstm_norm): LayerNorm()
          (xlstm): mLSTMLayer(
            (proj_up): Linear(in_features=512, out_features=2048, bias=False)
            (q_proj): LinearHeadwiseExpand(in_features=1024, num_heads=256, expand_factor_up=1, bias=False, trainable_weight=True, trainable_bias=True, )
            (k_proj): LinearHeadwiseExpand(in_features=1024, num_heads=256, expand_factor_up=1, bias=False, trainable_weight=True, trainable_bias=True, )
            (v_proj): LinearHeadwiseExpand(in_features=1024, num_heads=256, expand_factor_up=1, bias=False, trainable_weight=True, trainable_bias=True, )
            (conv1d): CausalConv1d(
              (conv): Conv1d(1024, 1024, kernel_size=(4,), stride=(1,), padding=(3,), groups=1024)
            )
            (conv_act_fn): SiLU()
            (mlstm_cell): mLSTMCell(
              (igate): Linear(in_features=3072, out_features=4, bias=True)
              (fgate): Linear(in_features=3072, out_features=4, bias=True)
              (outnorm): MultiHeadLayerNorm()
            )
            (ogate_act_fn): SiLU()
            (proj_down): Linear(in_features=1024, out_features=512, bias=False)
            (dropout): Dropout(p=0.0, inplace=False)
          )
        )
      )
      (post_blocks_norm): LayerNorm()
    )
  )
  (decoder): PCN_decoder(
    (fc1): Linear(in_features=1024, out_features=1024, bias=True)
    (fc2): Linear(in_features=1024, out_features=1024, bias=True)
    (fc3): Linear(in_features=1024, out_features=3072, bias=True)
    (conv1): Conv1d(1029, 512, kernel_size=(1,), stride=(1,))
    (conv2): Conv1d(512, 512, kernel_size=(1,), stride=(1,))
    (conv3): Conv1d(512, 3, kernel_size=(1,), stride=(1,))
  )
)
2024-08-23 15:39:17,612 [INFO] Model loaded from models_2/model_epoch_28.pth
2024-08-23 15:39:17,612 [INFO] -------------------------------------------------------------------
2024-08-23 15:39:17,613 [INFO] Epochs 80
2024-08-23 15:39:17,613 [INFO] Starting training
2024-08-23 15:39:17,615 [INFO] Epoch 28 started at Fri Aug 23 15:39:17 2024
2024-08-23 15:41:00,717 [INFO] Epoch and iter 28 99 Loss 14.476957321166992 Time 103.10386514663696
…
