…
2024-08-11 17:17:41,841 [INFO] Batch size: 32
2024-08-11 17:17:41,841 [INFO] Batches in train: 25.0
2024-08-11 17:17:41,841 [INFO] Batches in test: 6.25
2024-08-11 17:17:48,076 [INFO] Before compilation and loading of slstm.
2024-08-11 17:17:48,119 [INFO] After compilation and loading of slstm.
2024-08-11 17:17:55,950 [INFO] Before compilation and loading of slstm.
2024-08-11 17:17:55,969 [INFO] After compilation and loading of slstm.
2024-08-11 17:17:56,182 [INFO] Model loaded
2024-08-11 17:17:56,184 [INFO] --------------------------------------------------
Model(
  (encoder): XL_encoder(
    (conv1): Conv1d(3, 128, kernel_size=(1,), stride=(1,))
    (conv2): Conv1d(128, 256, kernel_size=(1,), stride=(1,))
    (conv3): Conv1d(512, 512, kernel_size=(1,), stride=(1,))
    (conv4): Conv1d(512, 1024, kernel_size=(1,), stride=(1,))
    (xlstm_point_stack): xLSTMBlockStack(
      (blocks): ModuleList(
        (0): mLSTMBlock(
          (xlstm_norm): LayerNorm()
          (xlstm): mLSTMLayer(
            (proj_up): Linear(in_features=128, out_features=512, bias=False)
            (q_proj): LinearHeadwiseExpand(in_features=256, num_heads=64, expand_factor_up=1, bias=False, trainable_weight=True, trainable_bias=True, )
            (k_proj): LinearHeadwiseExpand(in_features=256, num_heads=64, expand_factor_up=1, bias=False, trainable_weight=True, trainable_bias=True, )
            (v_proj): LinearHeadwiseExpand(in_features=256, num_heads=64, expand_factor_up=1, bias=False, trainable_weight=True, trainable_bias=True, )
            (conv1d): CausalConv1d(
              (conv): Conv1d(256, 256, kernel_size=(4,), stride=(1,), padding=(3,), groups=256)
            )
            (conv_act_fn): SiLU()
            (mlstm_cell): mLSTMCell(
              (igate): Linear(in_features=768, out_features=4, bias=True)
              (fgate): Linear(in_features=768, out_features=4, bias=True)
              (outnorm): MultiHeadLayerNorm()
            )
            (ogate_act_fn): SiLU()
            (proj_down): Linear(in_features=256, out_features=128, bias=False)
            (dropout): Dropout(p=0.0, inplace=False)
          )
        )
        (1): sLSTMBlock(
          (xlstm_norm): LayerNorm()
          (xlstm): sLSTMLayer(
            (conv1d): CausalConv1d(
              (conv): Conv1d(128, 128, kernel_size=(4,), stride=(1,), padding=(3,), groups=128)
            )
            (conv_act_fn): SiLU()
            (fgate): LinearHeadwiseExpand(in_features=128, num_heads=4, expand_factor_up=1, bias=False, trainable_weight=True, trainable_bias=True, )
            (igate): LinearHeadwiseExpand(in_features=128, num_heads=4, expand_factor_up=1, bias=False, trainable_weight=True, trainable_bias=True, )
            (zgate): LinearHeadwiseExpand(in_features=128, num_heads=4, expand_factor_up=1, bias=False, trainable_weight=True, trainable_bias=True, )
            (ogate): LinearHeadwiseExpand(in_features=128, num_heads=4, expand_factor_up=1, bias=False, trainable_weight=True, trainable_bias=True, )
            (slstm_cell): sLSTMCell_cuda(function=slstm, hidden_size=128, num_heads=4)
            (group_norm): MultiHeadLayerNorm()
            (dropout): Dropout(p=0.0, inplace=False)
          )
          (ffn_norm): LayerNorm()
          (ffn): GatedFeedForward(
            (proj_up): Linear(in_features=128, out_features=384, bias=False)
            (proj_down): Linear(in_features=192, out_features=128, bias=False)
            (dropout): Dropout(p=0.0, inplace=False)
          )
        )
        (2): mLSTMBlock(
          (xlstm_norm): LayerNorm()
          (xlstm): mLSTMLayer(
            (proj_up): Linear(in_features=128, out_features=512, bias=False)
            (q_proj): LinearHeadwiseExpand(in_features=256, num_heads=64, expand_factor_up=1, bias=False, trainable_weight=True, trainable_bias=True, )
            (k_proj): LinearHeadwiseExpand(in_features=256, num_heads=64, expand_factor_up=1, bias=False, trainable_weight=True, trainable_bias=True, )
            (v_proj): LinearHeadwiseExpand(in_features=256, num_heads=64, expand_factor_up=1, bias=False, trainable_weight=True, trainable_bias=True, )
            (conv1d): CausalConv1d(
              (conv): Conv1d(256, 256, kernel_size=(4,), stride=(1,), padding=(3,), groups=256)
            )
            (conv_act_fn): SiLU()
            (mlstm_cell): mLSTMCell(
              (igate): Linear(in_features=768, out_features=4, bias=True)
              (fgate): Linear(in_features=768, out_features=4, bias=True)
              (outnorm): MultiHeadLayerNorm()
            )
            (ogate_act_fn): SiLU()
            (proj_down): Linear(in_features=256, out_features=128, bias=False)
            (dropout): Dropout(p=0.0, inplace=False)
          )
        )
        (3): mLSTMBlock(
          (xlstm_norm): LayerNorm()
          (xlstm): mLSTMLayer(
            (proj_up): Linear(in_features=128, out_features=512, bias=False)
            (q_proj): LinearHeadwiseExpand(in_features=256, num_heads=64, expand_factor_up=1, bias=False, trainable_weight=True, trainable_bias=True, )
            (k_proj): LinearHeadwiseExpand(in_features=256, num_heads=64, expand_factor_up=1, bias=False, trainable_weight=True, trainable_bias=True, )
            (v_proj): LinearHeadwiseExpand(in_features=256, num_heads=64, expand_factor_up=1, bias=False, trainable_weight=True, trainable_bias=True, )
            (conv1d): CausalConv1d(
              (conv): Conv1d(256, 256, kernel_size=(4,), stride=(1,), padding=(3,), groups=256)
            )
            (conv_act_fn): SiLU()
            (mlstm_cell): mLSTMCell(
              (igate): Linear(in_features=768, out_features=4, bias=True)
              (fgate): Linear(in_features=768, out_features=4, bias=True)
              (outnorm): MultiHeadLayerNorm()
            )
            (ogate_act_fn): SiLU()
            (proj_down): Linear(in_features=256, out_features=128, bias=False)
            (dropout): Dropout(p=0.0, inplace=False)
          )
        )
      )
      (post_blocks_norm): LayerNorm()
    )
    (xlstm_point_stack2): xLSTMBlockStack(
      (blocks): ModuleList(
        (0): mLSTMBlock(
          (xlstm_norm): LayerNorm()
          (xlstm): mLSTMLayer(
            (proj_up): Linear(in_features=512, out_features=2048, bias=False)
            (q_proj): LinearHeadwiseExpand(in_features=1024, num_heads=256, expand_factor_up=1, bias=False, trainable_weight=True, trainable_bias=True, )
            (k_proj): LinearHeadwiseExpand(in_features=1024, num_heads=256, expand_factor_up=1, bias=False, trainable_weight=True, trainable_bias=True, )
            (v_proj): LinearHeadwiseExpand(in_features=1024, num_heads=256, expand_factor_up=1, bias=False, trainable_weight=True, trainable_bias=True, )
            (conv1d): CausalConv1d(
              (conv): Conv1d(1024, 1024, kernel_size=(4,), stride=(1,), padding=(3,), groups=1024)
            )
            (conv_act_fn): SiLU()
            (mlstm_cell): mLSTMCell(
              (igate): Linear(in_features=3072, out_features=4, bias=True)
              (fgate): Linear(in_features=3072, out_features=4, bias=True)
              (outnorm): MultiHeadLayerNorm()
            )
            (ogate_act_fn): SiLU()
            (proj_down): Linear(in_features=1024, out_features=512, bias=False)
            (dropout): Dropout(p=0.0, inplace=False)
          )
        )
        (1): sLSTMBlock(
          (xlstm_norm): LayerNorm()
          (xlstm): sLSTMLayer(
            (conv1d): CausalConv1d(
              (conv): Conv1d(512, 512, kernel_size=(4,), stride=(1,), padding=(3,), groups=512)
            )
            (conv_act_fn): SiLU()
            (fgate): LinearHeadwiseExpand(in_features=512, num_heads=4, expand_factor_up=1, bias=False, trainable_weight=True, trainable_bias=True, )
            (igate): LinearHeadwiseExpand(in_features=512, num_heads=4, expand_factor_up=1, bias=False, trainable_weight=True, trainable_bias=True, )
            (zgate): LinearHeadwiseExpand(in_features=512, num_heads=4, expand_factor_up=1, bias=False, trainable_weight=True, trainable_bias=True, )
            (ogate): LinearHeadwiseExpand(in_features=512, num_heads=4, expand_factor_up=1, bias=False, trainable_weight=True, trainable_bias=True, )
            (slstm_cell): sLSTMCell_cuda(function=slstm, hidden_size=512, num_heads=4)
            (group_norm): MultiHeadLayerNorm()
            (dropout): Dropout(p=0.0, inplace=False)
          )
          (ffn_norm): LayerNorm()
          (ffn): GatedFeedForward(
            (proj_up): Linear(in_features=512, out_features=1408, bias=False)
            (proj_down): Linear(in_features=704, out_features=512, bias=False)
            (dropout): Dropout(p=0.0, inplace=False)
          )
        )
        (2): mLSTMBlock(
          (xlstm_norm): LayerNorm()
          (xlstm): mLSTMLayer(
            (proj_up): Linear(in_features=512, out_features=2048, bias=False)
            (q_proj): LinearHeadwiseExpand(in_features=1024, num_heads=256, expand_factor_up=1, bias=False, trainable_weight=True, trainable_bias=True, )
            (k_proj): LinearHeadwiseExpand(in_features=1024, num_heads=256, expand_factor_up=1, bias=False, trainable_weight=True, trainable_bias=True, )
            (v_proj): LinearHeadwiseExpand(in_features=1024, num_heads=256, expand_factor_up=1, bias=False, trainable_weight=True, trainable_bias=True, )
            (conv1d): CausalConv1d(
              (conv): Conv1d(1024, 1024, kernel_size=(4,), stride=(1,), padding=(3,), groups=1024)
            )
            (conv_act_fn): SiLU()
            (mlstm_cell): mLSTMCell(
              (igate): Linear(in_features=3072, out_features=4, bias=True)
              (fgate): Linear(in_features=3072, out_features=4, bias=True)
              (outnorm): MultiHeadLayerNorm()
            )
            (ogate_act_fn): SiLU()
            (proj_down): Linear(in_features=1024, out_features=512, bias=False)
            (dropout): Dropout(p=0.0, inplace=False)
          )
        )
        (3): mLSTMBlock(
          (xlstm_norm): LayerNorm()
          (xlstm): mLSTMLayer(
            (proj_up): Linear(in_features=512, out_features=2048, bias=False)
            (q_proj): LinearHeadwiseExpand(in_features=1024, num_heads=256, expand_factor_up=1, bias=False, trainable_weight=True, trainable_bias=True, )
            (k_proj): LinearHeadwiseExpand(in_features=1024, num_heads=256, expand_factor_up=1, bias=False, trainable_weight=True, trainable_bias=True, )
            (v_proj): LinearHeadwiseExpand(in_features=1024, num_heads=256, expand_factor_up=1, bias=False, trainable_weight=True, trainable_bias=True, )
            (conv1d): CausalConv1d(
              (conv): Conv1d(1024, 1024, kernel_size=(4,), stride=(1,), padding=(3,), groups=1024)
            )
            (conv_act_fn): SiLU()
            (mlstm_cell): mLSTMCell(
              (igate): Linear(in_features=3072, out_features=4, bias=True)
              (fgate): Linear(in_features=3072, out_features=4, bias=True)
              (outnorm): MultiHeadLayerNorm()
            )
            (ogate_act_fn): SiLU()
            (proj_down): Linear(in_features=1024, out_features=512, bias=False)
            (dropout): Dropout(p=0.0, inplace=False)
          )
        )
      )
      (post_blocks_norm): LayerNorm()
    )
  )
  (decoder): PCN_decoder(
    (fc1): Linear(in_features=1024, out_features=1024, bias=True)
    (fc2): Linear(in_features=1024, out_features=1024, bias=True)
    (fc3): Linear(in_features=1024, out_features=3072, bias=True)
    (conv1): Conv1d(1029, 512, kernel_size=(1,), stride=(1,))
    (conv2): Conv1d(512, 512, kernel_size=(1,), stride=(1,))
    (conv3): Conv1d(512, 3, kernel_size=(1,), stride=(1,))
  )
)
2024-08-11 17:17:56,185 [INFO] Epochs 10
2024-08-11 17:17:56,185 [INFO] Starting training
2024-08-11 17:17:56,185 [INFO] Epoch 0 started at Sun Aug 11 17:17:56 2024
2024-08-11 17:18:14,976 [INFO] --------------------------------------------------------------------------------
2024-08-11 17:18:14,976 [INFO] Starting training
2024-08-11 17:18:15,904 [INFO] Subsetting the dataset to 1000
…
